Model: "sequential"
_________________________________________________________________
Layer (type)                 Output Shape              Param #
=================================================================
conv3d (Conv3D)              (None, 3, 6, 6, 32)       742432
_________________________________________________________________
max_pooling3d (MaxPooling3D) (None, 1, 3, 3, 32)       0
_________________________________________________________________
activation (Activation)      (None, 1, 3, 3, 32)       0
_________________________________________________________________
dropout (Dropout)            (None, 1, 3, 3, 32)       0
_________________________________________________________________
flatten (Flatten)            (None, 288)               0
_________________________________________________________________
dense (Dense)                (None, 512)               147968
_________________________________________________________________
dropout_1 (Dropout)          (None, 512)               0
_________________________________________________________________
dense_1 (Dense)              (None, 76)                38988
=================================================================
Total params: 929,388
Trainable params: 929,388
Non-trainable params: 0
_________________________________________________________________
Test data generation done
Train data (batch) generation done. Starting training...
2020-11-17 12:50:57.901305: I tensorflow/stream_executor/platform/default/dso_loader.cc:48] Successfully opened dynamic library libcublas.so.10
…
